nlp/sentiment-analysis.pt (torch, 453846 bytes, 10 tensors)

weight f4 [1024, 64]
00000000: fed8 9ebf 0696 89be 2ac5 3c3f 2562 24be
00000010: 4ad3 2f40 f841 dabe 67a8 6f3f 5c67 5ebf
00000020: fe29 4bbe 4208 623e 34a0 69be 39c8 cebd
00000030: 0954 dbbe d7eb 6bbf 687e e53f 6bd1 9cbf
00000040: fa50 a7be c801 50bf 5046 8b3f 3dd6 603e
00000050: b219 babe f618 54be 62f3 4b3f 1948 253f
00000060: ef7f f53f 9126 2fbc 91fa 8c3f 5c12 dbbf
00000070: b527 d13e dc62 3340 264e e2bf 7328 953e
00000080: 5ea3 47bf a767 423e 7b40 9d3e 06dc b1be
00000090: 20cd 37be b162 633e 4609 b8be 9aad 6bbe
000000a0: 007f ed3e 8ce5 29bf 5716 40bf 4a07 debf
000000b0: d3a9 823f 7a9a 4a3e 0dc8 8b3f 7cd8 87bf
000000c0: 2e1d 193e 7ee2 a0bd dd09 f3bf c351 b73c
000000d0: fb7f 82bf a703 23be 7396 18bf f737 c33e
000000e0: 5d26 b43f 024c 33bf 94f8 003f 21e1 6a3f
000000f0: befd 06bf acc7 80bf 8d80 4cbf d4bc e3be
00000100: f1bb 90bf 452a aa3f ff7e 84bf 94df 9d3e
00000110: 6648 393f dc37 4dbf 21a7 6a3e 5662 eb3e
00000120: 1b89 573f 9d39 473f 578c 703f 8c7f ac3d
00000130: 06de 9c3e e30c 8e3f cbf2 16bf 21ad 8fbd
00000140: 47f1 243f 442c 2bbf c72f cfbc acb5 a83f
00000150: eb1c 0e3f dde3 7abf 11e0 163f 0797 adbe
00000160: b262 81bf 7b2a e1bf 5cba 84be 712e 9f3e
00000170: be45 7bbf bd1c 913e 1764 2a40 5543 933e
00000180: 1710 92be 2f5d f9be 0979 6abf 58ad 523f
00000190: 745b 50be 0a62 8b3f 5eb1 8c3e 2631 1cbe
000001a0: a920 d23f 59a6 693f 7537 773f 8edd 06c0
000001b0: bd71 e53e 04d0 a2be 3e6a c9be 9844 fc3e
000001c0: 8162 933f 2518 b43b 7116 8e3e e3bc bcbf
000001d0: 08bd 66bf fb1b 4a3f c923 61bf 1117 e83e
000001e0: 76da 413f c462 0bc0 ba47 babf 1c08 cebf
000001f0: 1216 80bf ea7f aa3f cab4 923f cda3 8e3f
00000200: 3eef bfbf d625 e43d 88ea ccbf 071a 3fbc
00000210: 4d8a 563e ff45 5e3e 59b5 2c3f a8e2 c8be
00000220: 6b71 c93f e5b4 d63e 9fe6 6d3f 8148 d93e
00000230: dc24 35bf 932d 73bd 7c6a e93c b4c8 2bbf
00000240: 6332 63bd fbac 5bbf 087a 6a3f c45d 8dbf
00000250: 2311 2c3e d962 183e 9f8c cdbf c764 a1be
00000260: 309a b43f 5b08 46bf 3eef 44be 9786 b9bf
00000270: 2700 02bf fc83 88be de6b 3ebf fd4b 943e
00000280: e7f8 a73f c8ed 15bf 97ac 5ebe a51a a43f
00000290: 4ac3 00c0 2dd1 a4be 2c01 cbbf a1a5 39bf
000002a0: 9a47 c8bf cab0 9abe 2441 34bf a952 143f
000002b0: afa8 043f 1cff 163f 6f0a 3c3e 16f3 963f
000002c0: ec31 10bf 1233 4a3f 6317 8abf 24d3 143f
000002d0: c10a a43e 0826 55bf a174 333f 84e1 2fbf
000002e0: 5d5d 16c0 75a9 753f 4fb9 29be e8a0 47be
000002f0: 4d7e 7b3f bd7b 473f 2316 9a3f e720 9d3f
00000300: 9b16 303e 80f9 42bf 4989 a1bf b9fb 0540
00000310: 6851 5bbf 1859 453e 346d 30be c899 113e
00000320: fb2b ae3d 5e8a ecbe b832 53bf f31b 403e
00000330: a2f9 adbf 2d86 bd3f 9028 023f 845f 14bf
00000340: 9419 ecbe 8d0d 8abf b60d 943f 1c61 01bf
00000350: f844 7b3e 6859 b93f 7aa0 c0bf 9fc8 8f3f
00000360: 00b7 5b3f 0671 a6bf f28d d13f c2d7 30bf
00000370: 25bc dd3f 7326 bf3f 288e 6ebe 00de 3f3f
00000380: 0a8b bbbf fc5a 87bf 9fc2 803f 8b1e fd3f
00000390: 0920 84bf 8143 493f 2d43 a13f f97a 893f
000003a0: 4c5e b03f 9043 fbbe 7651 923f 4f2d fabf
000003b0: 9ad9 92bf 7b81 8abd 237e 21be 749f e73e
000003c0: 44ec 8fbf 2976 713f f08f 39be 0338 cb3e
000003d0: 3668 a3bf d0c6 9cbf b9a4 623f 2477 093f
000003e0: 0e4e 103f 7860 323f ca61 73be b61a 8e3d
000003f0: ba78 95be 1fb0 3a3c eee7 0b3e d29c 763f
-1.2409971 -0.2687227 0.7373835 -0.16053064 2.747271 -0.42628455 0.93616337 -0.86876464
-0.19840237 0.22073463 -0.22815019 -0.10096783 -0.4283755 -0.9215674 1.7929201 -1.2251409
-0.32678968 -0.8125272 1.0880833 0.21956725 -0.3634773 -0.20712647 0.7966825 0.6456314
1.9179667 -0.010690347 1.1013967 -1.7114978 0.40850607 2.802909 -1.7680099 0.29132423
-0.77983654 0.18984853 0.30713257 -0.34738177 -0.17949343 0.22205617 -0.35944575 -0.23015442
0.46385956 -0.66365886 -0.7503409 -1.7345974 1.0208076 0.1978549 1.0920426 -1.0612941
0.14952537 -0.078557 -1.8987385 0.022377854 -1.0195307 -0.15919362 -0.5960457 0.38128635
1.4074208 -0.70037854 0.503793 0.9174977 -0.5273093 -1.0060935 -0.7988365 -0.44480002
-1.1307355 1.329415 -1.0351256 0.3083464 0.72376096 -0.8016336 0.22915317 0.45973462
0.8419358 0.77822286 0.9396414 0.08422765 0.3063814 1.1097683 -0.5896422 -0.070154436
0.6443066 -0.6686442 -0.025291337 1.3180442 0.55512875 -0.9800394 0.5893565 -0.33904287
-1.0108244 -1.7591089 -0.2592343 0.3109012 -0.98153293 0.28342238 2.662359 0.28762308
-0.285279 -0.48703906 -0.91590935 0.8229575 -0.20347387 1.0889294 0.2747907 -0.15253124
1.6416217 0.9126945 0.96568996 -2.1072726 0.44813338 -0.31799328 -0.3933887 0.49271083
1.1514436 0.0054960423 0.27751496 -1.4745144 -0.9013219 0.78948945 -0.8794523 0.45330098
0.7572397 -2.1779032 -1.4553139 -1.6096225 -1.0006735 1.3320286 1.1461422 1.1143738
-1.4994886 0.11140029 -1.6009073 -0.01166392 0.20951195 0.21706389 0.67464215 -0.39235425
1.5737737 0.41934887 0.92930025 0.4243813 -0.7075937 -0.059369635 0.028493159 -0.67103124
-0.055467974 -0.8581082 0.91592455 -1.104424 0.16803412 0.14881457 -1.6058539 -0.315222
1.4109554 -0.773565 -0.19231889 -1.4494199 -0.5078148 -0.26663196 -0.7438334 0.28964224
1.3122834 -0.5856595 -0.21745525 1.2820631 -2.0119195 -0.32190838 -1.5859733 -0.72518355
-1.5646851 -0.30213004 -0.70411897 0.5793863 0.5181989 0.58983016 0.18363355 1.1792934
-0.56326175 0.7898418 -1.0788387 0.58134675 0.32039455 -0.83261156 0.70099837 -0.68703485
-2.3494484 0.95961696 -0.16574596 -0.19494975 0.98239595 0.77923185 1.2038006 1.2275666
0.17196123 -0.76161957 -1.2620021 2.093489 -0.8567109 0.19272268 -0.17229158 0.14218819
0.08504482 -0.46199316 -0.82499266 0.18760662 -1.3591807 1.4806572 0.50843143 -0.57958245
-0.46113265 -1.0785385 1.1566684 -0.505388 0.24538028 1.448041 -1.5048974 1.12331
0.8582611 -1.3003242 1.6371443 -0.6907922 1.7323042 1.4933609 -0.23296416 0.7494812
-1.4651806 -1.0574641 1.0059394 1.9774946 -1.0322276 0.7861863 1.2598625 1.0740653
1.3778777 -0.49074984 1.143111 -1.9545077 -1.1472657 -0.06762978 -0.15770774 0.4523884
-1.1243978 0.94320923 -0.18121314 0.3969117 -1.2766178 -1.2248173 0.88532597 0.5369742
0.563691 0.6967845 -0.23767772 0.069386885 -0.2919367 0.01139453 0.13662693 0.9633304

weight f4 [64, 64, 3]
00000000: 2333 84bc 93b3 2d3e c621 90bc 564c b73c
00000010: d438 ef3c 3879 353d 42f2 fa3b e06d 86bd
00000020: a9e2 d4bc 56a4 59bd eb4e f43c 7519 52bc
00000030: 0cfe 9fbd 1e8f 9a3d 15fa 123d 8f83 79bd
00000040: aa48 12be a0e2 1c3d 9530 773d e237 f5bd
00000050: b030 083d c29c b83d 3420 ddbc 1718 073e
00000060: 0234 12be 2efc 46bd 7230 a43c 4b3a 26bd
00000070: d91d 8c3b acb5 0dbd 4502 2ebd d07d 363e
00000080: 6d38 a6bd d7eb 413d 69a8 8dbe feae ccbb
00000090: 9d85 a43d ff42 8a3d bded 4a3d 0d54 f2bd
000000a0: 9705 1c3d e3de 1dbb fcc9 343c 59de 763c
000000b0: 2117 563c d20f 0b3e 2e75 d83d 8deb 0abc
000000c0: 0d30 29be a4d4 8b3c 8834 40bd f283 fa3d
000000d0: c6f7 703c ef00 82bb f6f7 c3bd 6eac 2d3d
000000e0: 3d26 e63d 628c 14be 7e14 8c3d acf8 68bd
000000f0: 7208 8f3c 4b17 473d 3615 5dbd aead 9d3d
00000100: 05a9 82bc 40c2 0f3a 0296 543e 9e73 103e
00000110: 0384 8f3c 868c 93bd e954 193d 7907 9f3a
00000120: 6b9d 083d 758f 95bd 9bf4 8f3d 7200 af3d
00000130: 5054 723d 219a 0ebd 3f0f a8bc 83da f43c
00000140: 719c 6c3d 6bbc 333d e94c afbd 17c2 a2bd
00000150: ba21 cc3c e695 1bbd 8a2a 813d 6d03 c7bd
00000160: 2319 bd3d cd8e 233a a24a f53c 6633 5c3d
00000170: 7b81 86bd 60f0 ac3d 5a42 a23d 92e1 413d
00000180: dc52 383c f23e aebd 7119 8b3d 26cd c1bb
00000190: e906 febd f40b c8bd 55b8 42bd ceec 5f3c
000001a0: 6770 e7bd 6b5e 09bd d3b0 6dbd a635 aa3d
000001b0: 6cca 0fbe 2b80 c63d 046d f73b 70a8 37bd
000001c0: 518a e93c a84c a2bc 08f1 b63d bcd2 b2bd
000001d0: 5510 f2bc d515 b23c dfd8 123e 452e c5bc
000001e0: 3078 3ebd f784 6f3d 5c27 94bd 2c3f 12be
000001f0: 7aba 4a3e 8bce e13b 538e a1bc bd6c 9cbd
00000200: 63dc 773c 1e4c b33c a9e3 ac3d 327a 253d
00000210: dad8 49bd 11d5 a6bd 12bd c7bc 8410 17bd
00000220: 23e9 42ba aac8 92bd f1d5 7f3c b9ba 70be
00000230: 9b7f 85bc 97fc 53bd e00c c2bd 8601 823d
00000240: c288 f93d 5971 a0bd dcac 18bd d073 22be
00000250: a3cc 17be fbd0 383d 80bd 013e faa4 ba3c
00000260: fb37 85bd b533 393c e94e 533b 518a dfbc
00000270: b793 32bd ac21 d73c 3add 4ebd b618 9e3c
00000280: ce2d 09bd a461 7bbc 1b26 af3b 97be 4abc
00000290: 8276 af3c 4e7f e3bc d4cc bb3c 5017 b3bc
000002a0: a253 6bbd d6e2 d3bc 05fe 18bd 1fcb 92bd
000002b0: cc14 7bbc dd85 81bc b420 623d 40ee ca3b
000002c0: e0cd aeba 8a9e 82bd a59d 133d 162a 1e3c
000002d0: 0a20 1bbe 496f 073d 444c 743d 4469 70bb
000002e0: 4d7e 91bd ced9 133d 837b 60bd a49b 80bd
000002f0: 3c4d 553d b655 e33d 4d41 f5bd ee20 413d
00000300: 6848 1ebd 05f9 f7bc cf3a 28bd d719 14bd
00000310: 66cf 9ebd 20ff aa3d 88d7 8e3d 06a0 5cbd
00000320: a574 be3d 42ea 03bd aad2 a13c 8910 57be
00000330: 9c9c 013c ffb7 1dbe 3f95 d33d 72af 5ebd
00000340: 7209 063e c0f3 2b3d 4868 2e3e 96d8 4bbe
00000350: cb37 f8bc e568 b93d 0d9d 64bd 7b7f 08bd
00000360: 8015 7c3d 1190 8cbe dd0b 5abc 78cb a3be
00000370: 64dc 993d fd20 71bd 2e86 723d a8f6 793d
00000380: 7a5d 683d 5684 7fbd 695c 9e3d 258a 85bc
00000390: 730b 0b3d 0499 de3d 1e50 0c3e 37f7 df3c
000003a0: 30ef 05be eb01 323d 5da2 743c f223 db3d
000003b0: a20c b73b 9cf2 1c3e ab8e ee3d 8592 f33d
000003c0: 7fd1 02be b71e 233c 2c02 32bd 0fe7 2dbd
000003d0: 9318 ecbc cecc 3cbc 45f0 d53d 4035 32be
000003e0: 7ead b3bc 5bdf 5e3d f81f 5b3d e12a 613c
000003f0: 496e 55bd 7a77 01be be7e cb3d 1071 0ebe
-0.016137665 0.16963033 -0.01759423 0.022375267 0.029201902 0.044305056 0.007658274 -0.06563926
-0.025986986 -0.05313524 0.029822787 -0.012823452 -0.078121275 0.07546829 0.035883028 -0.06091648
-0.14285532 0.038302064 0.060349066 -0.119735494 0.033249557 0.09014274 -0.026992895 0.13192783
-0.14277652 -0.04858034 0.020042632 -0.040582936 0.004276019 -0.034597084 -0.042482633 0.17821431
-0.08116231 0.047344055 -0.2766755 -0.0062464466 0.08033297 0.0675106 0.04954313 -0.11832438
0.03809127 -0.002408915 0.011034485 0.01506766 0.013067038 0.13580254 0.10569225 -0.008479011
-0.16522236 0.017069168 -0.046925098 0.12232198 0.014707511 -0.0039673964 -0.09568779 0.04240077
0.11237762 -0.14506677 0.06839846 -0.056877777 0.017460082 0.0486062 -0.053975306 0.076991424
-0.015949735 0.00054839626 0.20760348 0.14106604 0.017519003 -0.07204537 0.037434492 0.0012132964
0.03335325 -0.07302753 0.07029077 0.08545007 0.059162438 -0.034814958 -0.020515082 0.02988935
0.05776638 0.04388086 -0.08559591 -0.07947176 0.024918426 -0.03798475 0.06306942 -0.0971745
0.0923331 0.00062392355 0.029942814 0.053759955 -0.06567665 0.084442854 0.07922812 0.04733426
0.011250224 -0.085080996 0.06791962 -0.005914348 -0.12403662 -0.09767905 -0.047539074 0.0136672985
-0.11300736 -0.03353731 -0.05802996 0.08311014 -0.14042062 0.09692415 0.0075508375 -0.04483837
0.028508337 -0.019811943 0.08932692 -0.08731601 -0.029548803 0.021738926 0.14340542 -0.024069915
-0.04650134 0.058476415 -0.0723407 -0.1428191 0.19797698 0.006891077 -0.019721186 -0.07637928
0.015128228 0.021886881 0.0844186 0.040399738 -0.04927907 -0.08146108 -0.024382148 -0.036880985
-0.0007435253 -0.0716718 0.015614972 -0.23508729 -0.016296199 -0.05175456 -0.09475112 0.06347947
0.121842876 -0.07834119 -0.037274227 -0.15864491 -0.14824156 0.045121174 0.12669945 0.022783745
-0.06504818 0.011303832 0.003224308 -0.027287634 -0.043597903 0.026261173 -0.050503947 0.019298892
-0.03349095 -0.015343104 0.0053451187 -0.012374542 0.021418814 -0.027770665 0.022924818 -0.021861702
-0.057452805 -0.025865 -0.037351627 -0.071676485 -0.015324783 -0.015810901 0.05520697 0.0061929524
-0.0013336502 -0.06377895 0.036039013 0.009653589 -0.1514894 0.033065114 0.059643045 -0.0036683837
-0.07104168 0.036096387 -0.05480529 -0.06279686 0.05207561 0.111003324 -0.11975346 0.047150545
-0.03864327 -0.030270109 -0.04107171 -0.036157455 -0.07754402 0.083494425 0.06974703 -0.053863548
0.09299592 -0.032205828 0.019753773 -0.21002401 0.007910874 -0.1540222 0.10331201 -0.054366536
0.1308954 0.041980505 0.17031968 -0.1990684 -0.030300042 0.0905321 -0.055813838 -0.0333247
0.06154394 -0.27453664 -0.0133084925 -0.31991172 0.07512739 -0.05886935 0.059209995 0.061026245
0.05672977 -0.062382065 0.077324696 -0.016301224 0.033946466 0.10869029 0.13702437 0.02733956
-0.13079524 0.04345886 0.014931289 0.107002154 0.0055862227 0.15326923 0.116483055 0.11893181
-0.12775229 0.009956053 -0.043459103 -0.042456683 -0.028820312 -0.011523439 0.104462184 -0.17403126
-0.021933313 0.054412227 0.053497285 0.013743133 -0.05210713 -0.12643233 0.099362835 -0.13910317

bias f4 [64]
00000000: 3956 c439 eb43 b0bd 0b62 993b 8b82 8bbc
00000010: 6d14 0dbe bb23 cdbd c948 ebbd ddef c0bd
00000020: 5cda 7bbd da98 9fbd d6c5 9abd 2272 8bbd
00000030: 0376 d1bd ec18 d7bd 92f7 d8bd 958e 41bd
00000040: 12c3 a2bd 7660 c33c 8b4a 5abd 7f53 15be
00000050: 9456 97bc 42cc acbd e618 cebd b2dc cdbd
00000060: 400b 01be be68 5bbb 4b76 a6bc 7a85 373a
00000070: 2b69 c03c e3b9 debb ce65 69bd e029 64bb
00000080: c466 73bd 79fb abbd 7da5 8c3c 4627 81bc
00000090: 48ba 15be 328f e13b a19e 05bc bbe8 89bd
000000a0: 1678 29be 40dd 6ebe 63f3 80bd 8f7e 803c
000000b0: 5741 0bbe 4ec3 11be dff2 24bd b518 83bd
000000c0: 79d4 9bbc 04a3 84bd efee a4bd ee52 cfbb
000000d0: edd2 97bc 3008 a8bd 9bc0 d2bd a448 30bd
000000e0: 834a 38be 78f1 51bd 13cf 74bd 6360 08be
000000f0: b253 eabd 0d06 b83c d471 acbd 69ff b4bb
0.00037448274 -0.08606704 0.004680877 -0.017030021 -0.13777323 -0.10016581 -0.11488492 -0.0942075
-0.06148754 -0.07792826 -0.075572655 -0.068088785 -0.10227587 -0.105028 -0.10594095 -0.047255117
-0.07947363 0.023849707 -0.053293746 -0.14582632 -0.0184739 -0.084373966 -0.10063343 -0.1005186
-0.12601948 -0.003347918 -0.020320078 0.00070007856 0.023487648 -0.006797062 -0.056981854 -0.0034814999
-0.059424177 -0.08397574 0.017168755 -0.015765797 -0.14621842 0.0068835253 -0.008155496 -0.06733843
-0.16549715 -0.23326588 -0.06296422 0.015685348 -0.13599144 -0.14234659 -0.040270682 -0.06401197
-0.019022213 -0.06476405 -0.080533855 -0.0063270247 -0.018533194 -0.08204687 -0.10290643 -0.043038025
-0.17997174 -0.051255673 -0.059767794 -0.13318019 -0.11441745 0.022463823 -0.084201485 -0.0055236113

weight f4 [64, 64, 3]
00000000: 9c30 81bd 304b d43b 1a08 2dbd b08c e23c
00000010: b65d 253d 8b89 bc3d d3ee cabc 6be7 813c
00000020: 3e0d 463c d669 863c 7132 acbc 6f69 3dbc
00000030: 39ca 7d3d 487f 383e 88e6 efbc 0eae 6f3c
00000040: 3243 e8bd a88b fcbc 416d 9cbd f199 0bbe
00000050: 9e20 bf3a 763e 853b af11 2fbd 5311 43bb
00000060: 3323 883d f43a 783c 2384 a43c ac04 3e3d
00000070: 0173 483c a8e9 07ba 854c 3c3c bc4b adbd
00000080: c2e3 623b 2c9e ddbd 865f 313d 4264 423d
00000090: 5191 a03d 21df 143d cab3 5c3c 367e 74bd
000000a0: 3c7f 96bd 70e2 fb3b afe6 4dbd 7f4e bd3d
000000b0: 825e acbd 1fd8 b4bc 087b 463d f30d 00bd
000000c0: c1fa 943d ae29 f83c 4bc2 25bb a3af e0bc
000000d0: 0388 cebc cf94 cf3d bfbf 263d fdca 0e3d
000000e0: c6a8 f53d c6b9 ff3c 3502 e33c dbdb 64bd
000000f0: f10c 8d3c 5d2d e53d 4860 b03d 1f9b 9e3b
00000100: 2f53 cc3d 2d2b 9e3c 86a9 b3bd d905 35bc
00000110: 4876 703b 66c0 52bc 3ad8 fe3c efc1 7c3d
00000120: a941 4cbc efe3 0cbb 0f52 673d cc03 f3bc
00000130: f406 553d c159 693c e8dc 34bd fc57 91bc
00000140: 75b5 293c ae51 72bd 1a96 3abc 954d d0bc
00000150: a0ee bbbd 274c d7bd 5d81 9abd 5afa f33c
00000160: 6a11 4abd 6e47 6fbd 744c 1b3c a32e 82bd
00000170: 8acb a63d 819f 07be 7156 f1bd e03c abbc
00000180: 4f1c ad3d b71a d83d daf3 003e 6015 72bd
00000190: 1c9c e33d 094d a03c 10ee ac3d 8546 ee3d
000001a0: 3606 8a3d 4380 393d e5b6 493d 3dcb c2bc
000001b0: 0b9c e6bc 2891 13bd d180 f0bc 0dea 083d
000001c0: 2a32 753d ca99 de3d 6b71 d6bd 70ea 91bd
000001d0: 31db 093d 018b 333d ea36 d33c 4b2b b83c
000001e0: 72dc f0bd 00a2 88bd 46c9 f3ba c30d b0bd
000001f0: bacd bcbc 831d cdbd 1655 8fbc 2fa0 823d
00000200: 9fd3 8c3d e38d f9bd e91e d3bd 27c2 77bd
00000210: 8df4 6b3d a485 883d 1fef 873d 5cb3 4dbd
00000220: a05c 4dbd 823a 38bc cb99 48bd 1feb 2fbe
00000230: e6b8 d43c f1d8 f1bd 4399 a6bd 1e69 59bd
00000240: 694f b03c 51cc d13d 8d2c acbc 46bb 6c3d
00000250: 9617 93bd fd31 4cbd 99f7 a6bd 4786 3bbe
00000260: 982a 0cbe bd87 8cbd 7ab3 b4bb aced cb3c
00000270: b0cf 4fbd 468d cebc 5dac 9c3d e184 a73d
00000280: af27 823d 78c7 7e3d e044 443d fe0b 693c
00000290: ed67 503c 7339 6abd c75a 23bd e583 74bd
000002a0: f88b 0abd c900 d33d 759d 6b3c 134c ca3d
000002b0: fec7 b0bb 24ed a73d fcab f8bc 3c50 c53c
000002c0: 309d 423d 8c04 a23d ffdb c73b 437f a63c
000002d0: eb16 bebc b016 dcbd 1180 16bc 7a54 0dbd
000002e0: 662e 023c 4a36 51bd a561 c73d 965f e03b
000002f0: 63dd fbbc d410 11be 102d 913c b3fd 80bd
00000300: 33bc 0f3d 00eb 343c 074f 59be 749f f5bd
00000310: c06a 1cbe c2e6 97bc b6ca c73c 2f1c d93d
00000320: 311b 54bd d027 21bd 0a72 07bd a81c a53d
00000330: 0b0b b7bd 47af 8f3b 4c69 b63b d455 173d
00000340: e8da 893c 8604 febd 4cbd 1b3d a284 833d
00000350: 3c79 14be 779e 49bd 0626 993d 56c3 ecbc
00000360: eac7 ae3d 5d5d 74bd 34ac 853d 9806 233e
00000370: 5332 ec3b 70ae 69bc 7173 c8bd 98c6 5ebd
00000380: 2c0c 90ba 8b7d 31bc 52d1 b4bd 541b 27bd
00000390: d4f8 b0bd f0fe f0bc fe46 193d 3771 1ebd
000003a0: 7af5 0c3d ce8c c2bd a06a d6bd e1f5 563d
000003b0: e947 a23c 681b 09bd b8dd 89bd 13bb 60bd
000003c0: b8c9 15bd 4cee adbd 5781 83bc eb84 acbd
000003d0: 84df e1bc 2755 a93d 63c4 d3bc 6561 5abd
000003e0: 8a43 773b 18a3 3bbd 8994 913d e65c 003d
000003f0: 7b3b c43c 2e5c 04be 8dc3 bb3c 8c09 96bc
-0.063081 0.0064786896 -0.042244054 0.027654976 0.040372573 0.09205922 -0.024772083 0.015857419
0.012088118 0.016407888 -0.021020146 -0.011560782 0.061960433 0.18017304 -0.02928473 0.0146289
-0.113409415 -0.030828312 -0.07638026 -0.13632943 0.0014581864 0.004066284 -0.042741474 -0.0029764965
0.06647339 0.015150774 0.020082539 0.046391174 0.01223445 -0.0005184659 0.011492853 -0.08461711
0.0034620618 -0.108211845 0.04330399 0.047458895 0.07840217 0.036345605 0.013470599 -0.059690677
-0.07348487 0.0076869056 -0.050268825 0.092434876 -0.084164634 -0.02207571 0.048457175 -0.031263303
0.0727439 0.030293312 -0.002529281 -0.0274275 -0.02521134 0.10135805 0.040710207 0.034861553
0.119950816 0.031216513 0.027711013 -0.055873733 0.017218085 0.11190293 0.08612114 0.004840269
0.099768035 0.019307697 -0.087725684 -0.0110487575 0.0036691595 -0.012863254 0.031108964 0.061708387
-0.0124668265 -0.0021498164 0.05647474 -0.029664896 0.052008584 0.01424259 -0.044155985 -0.01774215
0.010358204 -0.059159927 -0.011388326 -0.025427619 -0.091763735 -0.10512572 -0.07544205 0.029782463
-0.049333014 -0.05841773 0.009478677 -0.063565515 0.08144291 -0.1324444 -0.117840655 -0.02090305
0.08452665 0.105519705 0.12593022 -0.059102416 0.1111376 0.019567983 0.08443844 0.11634544
0.06739466 0.045288336 0.049246687 -0.023778552 -0.028150579 -0.036027104 -0.0293583 0.033426333
0.059862293 0.10869177 -0.104708515 -0.071247935 0.033656303 0.043833736 0.025783021 0.022481581
-0.117607966 -0.06671524 -0.0018599413 -0.08596375 -0.023047317 -0.100153945 -0.017496627 0.06378209
0.06876301 -0.12185266 -0.1030863 -0.060487892 0.05760627 0.06666115 0.066374056 -0.05021988
-0.050137162 -0.011244418 -0.048974793 -0.17179535 0.025967073 -0.118089564 -0.08134701 -0.053078763
0.02152224 0.102440484 -0.021017337 0.057795785 -0.07182233 -0.04985236 -0.08152694 -0.18312941
-0.13688123 -0.068618275 -0.0055145593 0.024893604 -0.050735176 -0.025213849 0.07650063 0.081796415
0.06355225 0.062201947 0.047917247 0.014224051 0.01272009 -0.057183694 -0.039881494 -0.059696097
-0.03382489 0.10302884 0.014380802 0.09877791 -0.0053949347 0.08199528 -0.030355446 0.02408611
0.047513187 0.079110235 0.0060992236 0.020324355 -0.023204288 -0.10746515 -0.009185807 -0.03450439
0.007945633 -0.051077165 0.09735421 0.006847332 -0.030745214 -0.14166576 0.017721683 -0.06298389
0.03509159 0.0110423565 -0.21221553 -0.11993304 -0.15275097 -0.018542651 0.024388652 0.10601079
-0.051783744 -0.03934461 -0.03306774 0.08062106 -0.08937653 0.0043849084 0.0055667516 0.036947086
0.016828015 -0.124032065 0.038022324 0.06421782 -0.14499372 -0.04922339 0.074779555 -0.028901737
0.08534224 -0.05965935 0.06526986 0.15920484 0.0072081476 -0.014262781 -0.09787644 -0.054388613
-0.0010989956 -0.010833154 -0.08828987 -0.040797547 -0.0864121 -0.029418439 0.03742122 -0.03868219
0.034413792 -0.094995126 -0.10469556 0.052480582 0.01980968 -0.033473402 -0.067317426 -0.054865908
-0.036569327 -0.08492717 -0.016052885 -0.084237896 -0.0275724 0.08268195 -0.02585048 -0.05331554
0.0037729465 -0.045809835 0.07108409 0.031338595 0.023954144 -0.12925789 0.022920394 -0.0183151

bias f4 [64]
00000000: b9e3 4f3c ec70 56bd 1f39 5a3b f2b5 cebc
00000010: 4a34 44bd 5e50 95bd bedf e03c 50de 873b
00000020: b203 73bd 6da1 423d 9a62 fdbc dd71 1d3d
00000030: 0706 5abc 6e72 86bd 0850 debb 9a41 9d3c
00000040: 6372 57bd e6de 28bc 8454 94bd d3a5 923d
00000050: 258b 703d 61fa 433c 30c9 713c adc0 163d
00000060: 26ca 833d ac16 4c3d eb9a 77bc 0ae2 cbbd
00000070: aed5 c5bc b181 7a3d 1a64 7c3d 852e 4bbd
00000080: 14c6 733d 5afc 4abc a585 0cbd a37f 13bd
00000090: 326c 5fbd ba08 3cbd 1991 fbba 7f48 1abd
000000a0: 8466 83bb 1fe3 df3c 2760 e83a 04f1 32bd
000000b0: 7b4b df3c a7b2 da3c 0c13 9c3d f2e7 543c
000000c0: 77dd 893d 4fdb 013b 8295 423b 052a b5bc
000000d0: 489e 8b3d 60d4 dcbc 68b3 743d c7f9 cd3b
000000e0: ec5f 1d3d abc9 b13d 6fea 1d3d 0742 35bc
000000f0: 4a71 98bd f157 03bd 19bf ab3d 9514 12bd
0.012688571 -0.052353784 0.0033298207 -0.025233243 -0.04790143 -0.072907194 0.027450439 0.0041463748
-0.059329696 0.04751723 -0.030930806 0.038438667 -0.013307101 -0.065647945 -0.006784443 0.01919632
-0.052599322 -0.010307049 -0.072426826 0.07160535 0.05872645 0.01196155 0.0147574395 0.036804844
0.06435041 0.04982631 -0.015112619 -0.09955223 -0.024149742 0.06115884 0.0616189 -0.04960491
0.059515074 -0.012389267 -0.03430714 -0.036010396 -0.054546542 -0.04590676 -0.0019193023 -0.037666794
-0.0040100235 0.02732998 0.0017728851 -0.04368688 0.027257672 0.026696516 0.076208204 0.012994753
0.06731694 0.0019814556 0.0029691164 -0.022114763 0.06817299 -0.026956737 0.059741408 0.0062858793
0.038421556 0.08681043 0.03855365 -0.011063105 -0.07443483 -0.03206629 0.08386058 -0.03566416

weight f4 [64, 64, 3]
00000000: 6434 df3d f949 d3bc a3a1 9f3c 136d 35be
00000010: 9ed5 cfbd 4f08 04be f573 ebbd 0147 0fbd
00000020: b457 c83c 872c 193d e1d4 cc3c d2e6 3a3d
00000030: 4bd3 bdbd ee50 27bd b48e 83bc 685f d23c
00000040: 6682 3abc b8da 783d d33f 2d3e ceec 503d
00000050: b810 e63d 034d fabc 296b ac3d 7171 85bd
00000060: e537 0abe bf73 ecbd 3aef 4cbd 51e3 61bd
00000070: 255b 8cbb 7a5a 003d 6983 a6bd 2bed 90bd
00000080: dc19 54bd 89cb c83d 997d d2bd a373 7c3c
00000090: 8843 873d b1a7 53bd dbd9 19bd 2571 e9bd
000000a0: ad3e c6bc 451e 64bd ff29 a13d 2337 bc3d
000000b0: b495 f83b f753 babd 3daf e0bd 4094 2dbe
000000c0: 12f5 8abc 7b88 f4bc a525 1f3c 68a4 0bbe
000000d0: 4983 a6bd 996a f33c a334 d23d 784c c43d
000000e0: f37c d23b 7d3a 9fbd 3a6a 99bc e2fe da3c
000000f0: 4e6e e63d d933 de3b 5988 ce3d 49f7 b0bd
00000100: 5010 28be 321f cdbd 8e5a f43c f6c2 7cbc
00000110: 8682 d6bc d823 9cbd 48c3 22bd 45b5 92bd
00000120: 594c f93d 7fa7 b63d 8f18 763c d2fb 0ebe
00000130: 5696 3ebe 5cad 52be de7a 233e 94db a1bc
00000140: 1e0a ab3d cdc0 24be cd7c c7bc 9dfc a0bb
00000150: 1b99 f7bc 3838 aa3c f0ae 4bbc 1244 d9bd
00000160: f9ba 88bd 5ca5 24bd b0f8 14bd ebe1 dabc
00000170: e221 493d 82cf d6bd e4e5 2c3d 7abf 7dbd
00000180: 17f1 83bd fb78 a8bd b135 54bb 9825 97bd
00000190: d6cf c0bc 17cd 30be 0398 8fbd 16c0 3a3c
000001a0: d9c4 09bd 254d efbc c6b6 4b3d 585a 643d
000001b0: 835e 30bd a451 30be 5af2 05bd 5a61 493d
000001c0: eb10 063e 3348 72bc bd40 f5bc 3e7a 293d
000001d0: 7148 91bd eeb4 b3bb 6188 cabb 1276 473c
000001e0: 1c08 4ebd a604 0fbe 78de 42bc ac6a 6fbc
000001f0: 5b9e dd3d e151 ba3c cd48 93bd e5df c0bc
00000200: dc5b 063a c81a 543c af7d bcbb 22c2 24be
00000210: 05f9 02bd 1c54 02bd d1fb 9bbd 32c8 fb3c
00000220: bbdf 66bd cb38 153d 7c23 573d c1f0 9d3d
00000230: 74fe b83d d280 37bd 9405 e7bc 9e60 4ebc
00000240: b30d d13d 1fc2 22be 8163 36be f95a d73c
00000250: 9415 aebb 823c 93bc 7e34 103e e84c c7bb
00000260: 805f b8bd 108b b73b 155f bfbc de14 99bc
00000270: 4094 84bd 5fe9 13be dd64 eabd 1e9f b03c
00000280: 22ca 3b3d bafb beb7 6a15 4f3d d14a 4eba
00000290: a23d 083d 5345 3a3d 8e96 8dbd 2097 6e3d
000002a0: 9a76 f93c 89e9 713d 4da4 003c 4bb8 8b3d
000002b0: ced4 32be bc73 9e3c 0590 35bd 4ec0 6c3c
000002c0: ccb4 2e3d 9870 84bd b313 a5bc e5ba 52bd
000002d0: 9e13 37bd f56d 97bd 1209 5cbc a1e3 d93c
000002e0: e3bd 8abd ea51 64bc b1fd 84bc 47c3 71bd
000002f0: 6eab 213e e2e2 0cbe 0db6 a2bd b3be fcbd
00000300: dc0e 64bc 379b 9bbc 09f3 923d 02b9 383d
00000310: 67b6 5ebc 6f21 dabd 6e49 0ebd 1a14 4abd
00000320: 36f7 ffbc b7e9 69bd 8d08 0e3d c5d6 a3bd
00000330: 0a9b 04be 422a fc3c b9b9 983d a596 6b3d
00000340: 176d f33b cd13 42bd 8dfc bf3c 66eb 36bd
00000350: 8655 3ebd d9d4 44bd 31b9 a83d 89f0 12bc
00000360: 359d 9cbd 559e e23c e98f 42bd acc2 b4bc
00000370: cb4a 4abd 7998 19be f4e5 04bd fc50 c1bd
00000380: 0a27 ccbd 1e71 9bbd 21e4 223c 6afb 8e3d
00000390: c7b0 733d cfc2 95bd 70ef b2bc e71d 553c
000003a0: 917d 263d 7541 63bd a2bc a23c 96fe ac3d
000003b0: b411 303d ea92 acbd 4539 6a3c 9c07 08bd
000003c0: a75d 9d3d 7687 333d eb54 dc3d 03fc 273d
000003d0: 6681 55bd f06d 64bd c59c f2bc 28c7 903d
000003e0: 6197 79bd b161 273d 6f4f 823d 6a4b b7bd
000003f0: 81cf 1ebe af86 0d3d fbb8 e33c a7b4 363c
0.108986646 -0.025792109 0.019486254 -0.1771739 -0.10148166 -0.12893794 -0.114967264 -0.034979824
0.024455883 0.03739598 0.025003852 0.045630284 -0.092688166 -0.040848665 -0.016059257 0.025680259
-0.0113836285 0.06075546 0.16918878 0.051007085 0.112336576 -0.0305543 0.08418877 -0.06515778
-0.13497885 -0.11545514 -0.05003283 -0.055148426 -0.004283326 0.031336285 -0.08130533 -0.07076486
-0.051782474 0.09804446 -0.10277862 0.015408429 0.066046774 -0.051673595 -0.03756128 -0.11398534
-0.024199808 -0.05569293 0.07869338 0.09190204 0.0075862054 -0.09098046 -0.10970924 -0.16951084
-0.016962562 -0.029850235 0.009713565 -0.13636935 -0.081305094 0.029713916 0.10263946 0.09584898
0.0064235865 -0.07774828 -0.01872741 0.026732866 0.11251508 0.006781083 0.100846 -0.08640916
-0.16412473 -0.10015716 0.029828336 -0.015427342 -0.026185285 -0.07624024 -0.039737016 -0.07163481
0.12172765 0.08918666 0.015020504 -0.1396325 -0.18612036 -0.20573944 0.15964839 -0.019758023
0.08351539 -0.16089173 -0.024351502 -0.0049129263 -0.030224374 0.02077876 -0.012431845 -0.106086865
-0.06676287 -0.04019676 -0.03636998 -0.026719054 0.04910458 -0.10488798 0.04221143 -0.061950184
-0.064424686 -0.082262 -0.0032380635 -0.07380217 -0.023536604 -0.17265736 -0.07011416 0.011398336
-0.033634994 -0.02921159 0.049734853 0.05575022 -0.043058883 -0.17218643 -0.032701828 0.049165107
0.13092391 -0.014787721 -0.029938096 0.041376345 -0.07093895 -0.005484215 -0.0061808084 0.012174146
-0.050300702 -0.13966617 -0.011893861 -0.014612835 0.108212195 0.022744121 -0.0719162 -0.023544261
0.00051253824 0.012945838 -0.0057522873 -0.16089681 -0.031975765 -0.031818494 -0.076163895 0.030735109
-0.05636571 0.036431115 0.052524075 0.07711936 0.09032908 -0.044800587 -0.028200902 -0.0125962775
0.10207691 -0.15894364 -0.17811395 0.026288496 -0.005312631 -0.017973188 0.14082524 -0.006082166
-0.0900259 0.0056012943 -0.023360768 -0.018686708 -0.06473589 -0.14444493 -0.114450194 0.021560248
0.045847066 -2.2766984e-05 0.05055753 -0.0007869425 0.033261903 0.04547627 -0.06913482 0.058249593
0.030452061 0.059060607 0.007851672 0.068222605 -0.17463991 0.019342296 -0.0443268 0.014450146
0.04265289 -0.06466788 -0.020150995 -0.051447768 -0.044696443 -0.073940195 -0.013429897 0.0265978
-0.06774499 -0.013935545 -0.01623425 -0.05902412 0.15788051 -0.13758424 -0.0794488 -0.123410605
-0.013919558 -0.01899491 0.071752615 0.045098312 -0.013593293 -0.10650908 -0.034737997 -0.049335577
-0.031245809 -0.057107653 0.034676123 -0.079999484 -0.12949768 0.030781869 0.07457299 0.057516713
0.007428776 -0.047382165 0.023435855 -0.044658087 -0.04646828 -0.04805455 0.082384475 -0.008968481
-0.07647172 0.02766339 -0.047500525 -0.022065483 -0.049387734 -0.1499957 -0.032445863 -0.09439275
-0.099683836 -0.07589935 0.0099420855 0.06981547 0.05949476 -0.073125474 -0.021842688 0.013007618
0.040647093 -0.055482347 0.019865338 0.08446996 0.042985633 -0.08426459 0.014295881 -0.033210382
0.076838784 0.043830357 0.10758384 0.04101182 -0.052125357 -0.055768907 -0.02961577 0.07069236
-0.06093538 0.04086465 0.06362807 -0.08949931 -0.15508844 0.034552272 0.027798166 0.011151469

bias f4 [64]
00000000: 8185 ac3d 5aee a43b e448 d4bc 9651 92bd
00000010: 9200 49bd d65d a33c 6af4 343d 96b5 1abd
00000020: 648c 073d c2c2 17bd a530 c9bc 2718 df3c
00000030: 848c 9bbc 6367 0d3a 7cef efbc 27b5 9bbd
00000040: 09e0 073c 446a 82bd 313c 23bd 06e0 45bd
00000050: 5f3d 833d a8c5 6c3d e316 6d3a 3e77 843d
00000060: f24d 57bd e9c1 8abd df56 0dbd 9bc1 82bd
00000070: acba e33c b4af f33b 3ded ed3c f105 aa3d
00000080: a4e1 553d fa20 33bd 088b ddbb 7795 07bd
00000090: 05ed afbd 58c2 4ebd 66ce cf3d af71 593d
000000a0: 3462 97bc 6c8e 8cbd a8a8 8abc 1e9f 81bd
000000b0: d01c 783d 33a6 a23d 0c23 443d 3f0c 84bd
000000c0: ce71 04be c29b a13c c625 d8bc 00e7 97bd
000000d0: 761f b4bd 6263 9abc 0465 3bbd 9c64 e03c
000000e0: f8b0 493d c807 87bc be8c 993b 5bf6 8f3c
000000f0: 7b90 ba3d d87b 183d 56d8 53bc e74a 263c
0.08423901 0.0050332965 -0.025913663 -0.071444675 -0.04907281 0.019942205 0.044178404 -0.03777083
0.03309287 -0.03705097 -0.024559328 0.027233196 -0.018987902 0.0005394129 -0.029289 -0.076029114
0.00829316 -0.06367925 -0.039852325 -0.04830935 0.0640819 0.057805687 0.0009044243 0.06468056
-0.05256457 -0.06775267 -0.034506675 -0.063845836 0.027798973 0.007436717 0.029043788 0.083019145
0.05221714 -0.04373262 -0.0067609586 -0.033101525 -0.0859013 -0.05047831 0.10146789 0.053086933
-0.018479444 -0.06863102 -0.016926125 -0.06329177 0.060574353 0.07941856 0.047884986 -0.06447648
-0.12934038 0.019727591 -0.0263852 -0.07417107 -0.08795063 -0.018846218 -0.045750633 0.027391724
0.049241036 -0.016483203 0.004685967 0.017573526 0.09109589 0.03722748 -0.0129299965 0.010149694

weight f4 [100, 64]
00000000: 4105 1ebe 9952 a33d 111f 143e 215a 3d3d
00000010: 868a c83b ae87 463c 802a 48be c133 2dba
00000020: 09d0 dbbd f8cd 4abd 8d3a 813c 7e8a 0e3e
00000030: 9bb0 a93d 4f91 22bc dfa0 69bd e9d5 db3d
00000040: e3ce 963d 7532 8bbc 9385 a7bd 5819 adbd
00000050: cf81 91bd 5c18 4ebe 833f 2abe 3d63 433d
00000060: f8ae c4bc 1710 a63d c06c f0bd 1fc4 903d
00000070: ed9e 433c cd71 593d 1b7c 213e 8dc5 c9bd
00000080: 7df5 a3bd 4f5a 863d 5a30 cf3d c112 633c
00000090: e5ef b83d 6fba b4bd 4749 14be 32b3 67be
000000a0: 649f 593d cef4 583d daf8 2c3d 1c5c c5bd
000000b0: 65cd 0cbc 04d9 c7bd 91cf 233e 330c ffbd
000000c0: b0f2 cbbc 64b8 54be 5b38 0cbe 9176 8ebd
000000d0: b64e 643e db81 c7bd 04f0 5cbc fa67 84bd
000000e0: d1de 1fbe 8871 083e 073d e8bd 4029 963c
000000f0: d854 75be fd77 c03d 159a 21be 43f4 a23c
00000100: f053 f7bd 13f0 c7bd c0bc e5bd d87f 0ebd
00000110: 5e40 86bd ad0e 353d 7591 eebc 0591 e63b
00000120: 0c3a 11be d83b d2ba 5eb6 753d 5c46 96bd
00000130: 7547 afbd 88dd aebd 3c22 a3bd 0408 dfbd
00000140: 4d30 22be 2804 193d c4fa 993d 9ba9 6e3b
00000150: f7d4 ccbd f17b 8f3c 99ff edbd b6ae ffbd
00000160: a213 d9bd 601f 3fbd 3461 91bd 07a5 9c3d
00000170: dea7 d5bd 9ec8 00be 2594 8dbc 93af 793c
00000180: 410b c4bc 5b0e 54bc a545 b0bc 68ba a93b
00000190: f095 2ebd 4bb6 c33c 8752 0bbe 3c53 4d3d
000001a0: f5ce bfbd 90cf cdbd 9da3 e03c 047a ebbd
000001b0: cafb 0dbe 953d c6bd 0bf1 9b3c f17a d5bd
000001c0: 5225 cdbd 7563 a6bc b301 643d 98c4 973c
000001d0: 4064 d4bc ac29 1abb 2ee4 5b3d 4d36 a6bd
000001e0: d00c 813d 3b16 da3d 54c4 8fbd 808e 703b
000001f0: ef04 cdbd 8a66 6d3c 02e5 cfbd e6c3 b53d
00000200: 6141 e7bc a87d a1bd adbc 0ebd 2aa1 a4bd
00000210: b98a 403d 008b f2bd c08b 853d 9d2b 97bd
00000220: f5dc 103d e5ea 953d 19c2 2cbd 4be4 bc3d
00000230: 49a8 9e3d 29ed 01be 301f a83d 7742 cfb9
00000240: 4438 943d b558 da3c f7d4 f1bd ea30 6e3d
00000250: b413 033d 8c89 c5bd 0a37 0dbe f66c 483d
00000260: b3e0 15bd 42c0 473d fd1f f6bd 4b12 d8bc
00000270: 1658 9abc 6d11 a9bb 158c 0fbe fced b7bc
00000280: 1223 0abe e07a a8bd 9a34 1cbe bf93 a2bd
00000290: 8e87 333d 04d3 a23d f632 2abb dd5b 083c
000002a0: 52b9 09bc f0d3 6f3c c897 07be 5f40 e83c
000002b0: b889 233d 2212 9dbd 1072 b3bd 02f0 2e3d
000002c0: 7382 a7bd 9d30 6cbd 043f e5bd ee6f 0bbd
000002d0: 492e ecbd 1138 e0bd 9ecf 9bbc de6c 31bd
000002e0: 56d2 cdbd 0217 f13c b4fd 15be dc4d e93d
000002f0: a042 283c b48e e9ba ab6b 82bd d397 0dbe
00000300: cd6c adbd 6ed6 74bd 11de 7cbd 97e9 0cbe
00000310: 0106 9a3d f69d 00be d8dc 493d daa3 b33d
00000320: 345c 5bbd 8175 01be 1bd6 1cbc 87b4 bb3d
00000330: bcbc 6a3b aa9d 88bc 3232 7d3d 05cb f53d
00000340: 6798 55bd 28fa 89bd b999 f4bd 5887 a13d
00000350: 581d 93bd d640 563d 3d4f 95bc 4c45 9cbd
00000360: 1f31 e2bd 1ab9 9b3d f191 9ebd d45f 87bc
00000370: e430 973a 76cb 13be 1cad 32be 6bc2 99bc
00000380: 446c 673e ba15 1fbd e9b1 043d 72e6 b2bd
00000390: 8968 e7bd 66d3 26be 20e1 84bd 2d41 9b3d
000003a0: 6a71 863d 01e1 cebd 575c e63d 50c2 f43d
000003b0: e758 bc3d 0e3a 3839 466d 36bd 5f8f febc
000003c0: 6314 3a3c fcaa 033e d144 3cbd 1a36 ec3d
000003d0: ec3e 053e f27a 44bd 39b9 c13d 4480 d93d
000003e0: 5200 173b efd4 02be ea88 34bd 147a 083e
000003f0: aa57 6d3d c594 3cbe 9df7 9fbd 43ac 74bd
-0.15431692 0.07974739 0.14464976 0.04622853 0.006120029 0.0121173095 -0.19547462 -0.0006607138
-0.10733039 -0.049512833 0.01577499 0.13920018 0.08285638 -0.00992234 -0.057038184 0.107341595
0.07363679 -0.016991833 -0.08179774 -0.084520996 -0.07104837 -0.2012648 -0.1662579 0.047702063
-0.024009213 0.08108538 -0.117394924 0.07068657 0.011939746 0.053087045 0.15769999 -0.09852133
-0.080058075 0.06560194 0.10116644 0.013859452 0.09030131 -0.08824622 -0.14481078 -0.22626951
0.053130522 0.05296784 0.04222951 -0.09636709 -0.008593892 -0.09758189 0.15997149 -0.12453499
-0.024895996 -0.20773464 -0.13693373 -0.069562085 0.22295651 -0.09741565 -0.013484959 -0.064651445
-0.15612341 0.13324559 -0.11339765 0.018330216 -0.23958147 0.09397886 -0.15781434 0.019891864
-0.12076557 -0.097625874 -0.11217642 -0.03478989 -0.06555246 0.04420345 -0.029122094 0.0070363306
-0.141823 -0.0016039563 0.059988372 -0.07337639 -0.08558551 -0.085383475 -0.07965514 -0.10890201
-0.15838738 0.03735748 0.07518533 0.003641701 -0.10001557 0.017515155 -0.11621017 -0.12484495
-0.10599448 -0.04666078 -0.07098618 0.07648664 -0.10432409 -0.1257653 -0.017282555 0.015239614
-0.023931148 -0.012942876 -0.021517584 0.005179692 -0.04262346 0.023890635 -0.136057 0.050128207
-0.09365646 -0.10049355 0.027421767 -0.11497882 -0.13865581 -0.096797146 0.019035837 -0.1042384
-0.10016884 -0.020311097 0.055665683 0.01852636 -0.02592671 -0.0023523374 0.053684406 -0.08115826
0.06301272 0.106487714 -0.070198685 0.003670603 -0.10010707 0.014489779 -0.10151102 0.08875255
-0.028229417 -0.07885295 -0.034847904 -0.08038552 0.047007296 -0.118429184 0.06520796 -0.073813654
0.03536697 0.07320193 -0.042177293 0.09223231 0.077469416 -0.12688126 0.082090735 -0.00039531637
0.07237294 0.026653627 -0.11808198 0.058152117 0.032001212 -0.096453756 -0.13790527 0.04893204
-0.036591243 0.048767336 -0.1201782 -0.02637591 -0.01884083 -0.005159548 -0.14018281 -0.022452347
-0.13489941 -0.082265615 -0.15254441 -0.079383366 0.043830447 0.07950404 -0.0025970316 0.008322683
-0.008406 0.014637932 -0.13241494 0.028351007 0.03992626 -0.07669474 -0.0876199 0.042709358
-0.08179178 -0.05766355 -0.1119366 -0.03404229 -0.11532266 -0.10948194 -0.019019898 -0.043316714
-0.10049884 0.029429916 -0.14647561 0.113918036 0.010269791 -0.0017819018 -0.06368192 -0.13827448
-0.08468018 -0.05977481 -0.061735217 -0.13760982 0.075206764 -0.12560257 0.04928288 0.087714866
-0.05355473 -0.1264248 -0.009572531 0.09165292 0.003581806 -0.016676743 0.061815448 0.120016135
-0.052147295 -0.06737167 -0.11943383 0.07887143 -0.07183331 0.052307926 -0.01822626 -0.07630405
-0.11044525 0.07603665 -0.0774268 -0.016525187 0.0011534956 -0.14433083 -0.17448848 -0.018769464
0.22599894 -0.03883908 0.03239623 -0.0873536 -0.112992354 -0.1629158 -0.06488252 0.07580791
0.06564601 -0.1010151 0.11248081 0.11951125 0.09196644 0.00017569234 -0.044537805 -0.031074224
0.0113574 0.12858194 -0.045964066 0.115337566 0.13012284 -0.047968812 0.094591565 0.10620168
0.0023040962 -0.1277654 -0.044075884 0.13327819 0.05794493 -0.18416126 -0.078109 -0.059734594

bias f4 [100]
00000000: 08bc 13be 341f 06bd cad7 bcbd ad6e d93d
00000010: b706 d33d 731a ec3d d9b1 0dbe ac0c 01be
00000020: 8dc1 2fbd fdf1 7ebd a267 d3bd 62d1 dfbd
00000030: baaa 973d 5817 ff3d 5e6e 983d b9e4 433d
00000040: 9908 fb3a 2187 b03c ea78 c13d 94f0 88ba
00000050: 8ca7 b4bc b8ae 8f3d d022 0bbe f08b a83d
00000060: 729a 76bd ca8e 3f3d 1b0f df3d edf7 a53d
00000070: 48b9 b2bb e3be 313c 373b c93b c9c0 d4bd
00000080: e707 633d b304 75bd f8d4 acbc 8040 9dba
00000090: d630 febd e70c 273d 9755 9cbd 6139 be3d
000000a0: 90f3 90bc 0039 36bd 1c4b ecbc 7364 cd3d
000000b0: da88 0a3e 6900 46bd cb42 063d 3700 85bd
000000c0: 7373 bfbc 3638 113d 9543 bdbd 6fe9 e13d
000000d0: 162f 1ebe 2f67 833d 8b12 0c3d 42c3 d0bc
000000e0: 2618 14bd 9d77 e8bd 4dc2 d4bd 745e 0e3e
000000f0: f984 0dbe 83e3 8ebd 46f0 44bd c9a3 95bd
00000100: ad2b 813d 3282 1c3e 7d2f 88bc aeec c3bd
00000110: a1ce d8bc 3a80 d83d 427a 94bd 6016 853d
00000120: 3d55 813d c9a7 86bd 6cc4 303d a734 48bd
00000130: cc75 53bd 2079 f8bd 89a2 3b3e dd8b ec3d
00000140: 352b 0abe 002c 09be 8a62 40bc b282 b13b
00000150: 4b74 bfbd 5855 26be 9c9a b53c dd66 3fbd
00000160: db2c 03be b3c1 a93d 4795 cc3d 4900 cbbd
00000170: a821 ef3d 2045 50bd 97d0 ba3d df13 d9bd
00000180: f5f0 bd3c 45c8 a4bc e9ea 133e f64a 99bd
-0.14427197 -0.0327446 -0.09220846 0.10616813 0.10304015 0.11528482 -0.13837375 -0.1260249
-0.042909194 -0.062242497 -0.10322501 -0.109286085 0.074056104 0.12455624 0.07442926 0.04782555
0.0019152343 0.02154881 0.09446891 -0.0010447674 -0.022052549 0.07015747 -0.13587499 0.08229816
-0.060205884 0.046767034 0.10891553 0.08103929 -0.005454216 0.010848734 0.006141092 -0.10388333
0.055427458 -0.059818935 -0.021097645 -0.0011997372 -0.124116585 0.04078379 -0.076335125 0.09288288
-0.017694265 -0.044487953 -0.028844409 0.10028925 0.13528767 -0.048340235 0.032778542 -0.064941816
-0.02337048 0.035453998 -0.09241406 0.11030852 -0.1544765 0.06416165 0.03419737 -0.025483731
-0.036155842 -0.113509394 -0.103886224 0.13903219 -0.13820256 -0.06976988 -0.048080705 -0.0730663
0.063071586 0.1528404 -0.016624207 -0.095666274 -0.026465716 0.10571332 -0.07249881 0.06498408
0.06315086 -0.06574971 0.043156072 -0.04887834 -0.05162601 -0.12132478 0.18323721 0.11550114
-0.13493045 -0.13395691 -0.011742244 0.0054171914 -0.09348353 -0.16243494 0.02216845 -0.046728957
-0.1281008 0.08288898 0.0998941 -0.09912164 0.11676341 -0.050847173 0.091218166 -0.10599493
0.023186186 -0.020115027 0.1444508 -0.07485001

weight f4 [1, 100]
00000000: 38c3 e5bd bb5c 40bc 230b 4cbb e95d 8c3d
00000010: f481 cb3d 9e47 903d d84c b0bd 5ff2 113d
00000020: 4151 263c ff95 dabd 6668 743d cfd9 343c
00000030: c3b5 923d 7d04 c73d fef3 56bd be15 a03d
00000040: d390 b03c 5a50 123c 68f3 bf3d 79e2 0e3e
00000050: 8154 003d 9ce9 323e 1d70 593c eff3 7dbd
00000060: 16b9 e93c 74b2 e9bd dfda 09be e31d 013e
00000070: 6b21 2bbd 55e7 e43d baa1 eb3c e2e5 81bb
00000080: 638a 9cbd 163e 1cbd 2a26 c2bd 7afb 733d
00000090: efdd 97bd 2b3e 4ebd 2608 ae3c 574d b8bd
000000a0: 59f8 8e3d e4a3 55bd 8332 a23d c354 b8bd
000000b0: 06c1 fe3c 1bd2 d5bd 085f 46bd de92 853d
000000c0: bcee e33c 236e 873c 900a 003e 52c8 f0bd
000000d0: 92ae e5ba 8073 13be 750e 7cbb 5f18 cf3d
000000e0: 4362 f1bc ba85 b1bd afce 14bd 368d 833d
000000f0: cf27 373d 9ebd 15bd f0a3 bc3c cb4e 303c
00000100: 3ea4 b4bc e1a6 153e aa98 acbd 40bf e9bd
00000110: fc17 a1bd b492 663d 2a2a 4b3d 784c b93d
00000120: f6bc 0b3e 9a66 393b f9bb 65b9 166f b23d
00000130: cb90 b53d 0558 8bbc ac76 db3d d631 da3d
00000140: 1cd2 963c 3f5c acbd 5932 053e e21a e6bd
00000150: ec02 f4bc abd4 bdbd b9cc 9fbc f6d7 03bc
00000160: 5f23 dcbc c862 ecbc a1f9 21bd a79c 103d
00000170: cd69 3f3d 8692 7bbd 2ed5 e0bc acc0 a03c
00000180: 2bf8 d6bd 5aa9 823d 463a b63d 8f6f cd3d
-0.11218876 -0.011740859 -0.0031134568 0.068538494 0.09936896 0.0704491 -0.08608407 0.035631534
0.010151208 -0.10673141 0.059669875 0.011038258 0.071635745 0.09717653 -0.052478783 0.07816647
0.021553433 0.00893029 0.09372598 0.1395358 0.03133059 0.17471927 0.013271359 -0.06200021
0.028530639 -0.1141099 -0.13462399 0.12609057 -0.041779917 0.111769356 0.02876364 -0.0039641717
-0.07643583 -0.038145147 -0.094799355 0.059566 -0.07415377 -0.050352257 0.02124412 -0.089991264
0.06980962 -0.05215825 0.079197906 -0.09000542 0.0310979 -0.10440465 -0.048430473 0.06522153
0.027823798 0.01653201 0.1250403 -0.11756958 -0.001752334 -0.14399529 -0.0038460765 0.1011207
-0.0294658 -0.086680844 -0.03632992 0.06423418 0.0447157 -0.036557786 0.02302739 0.010760973
-0.022050973 0.1461444 -0.08427556 -0.11413431 -0.07865903 0.05629225 0.049600758 0.090477884
0.13646302 0.0028289915 -0.00021909167 0.08712594 0.08865508 -0.017009744 0.10715994 0.10654037
0.018410735 -0.08416032 0.13007487 -0.11235596 -0.02978655 -0.09269079 -0.019506799 -0.008047095
-0.026872335 -0.028855696 -0.039544705 0.035305645 0.04673176 -0.061419033 -0.027445402 0.019623123
-0.10496553 0.063799575 0.088978335 0.10031044
